…
2021-07-05 13:33:14.464356: I tensorflow/stream_executor/platform/default/dso_loader.cc:48] Successfully opened dynamic library libcudnn.so.7
loading data:/home/f118885/data/thesis/segmentsBASIC.npy
input images:  (3665, 256, 256, 7)
outputs:  (3665, 17)
Model: "functional_1"
__________________________________________________________________________________________________
Layer (type)                    Output Shape         Param #     Connected to                     
==================================================================================================
input_1 (InputLayer)            [(None, 256, 256, 7) 0                                            
__________________________________________________________________________________________________
conv2d (Conv2D)                 (None, 256, 256, 16) 464         input_1[0][0]                    
__________________________________________________________________________________________________
conv2d_1 (Conv2D)               (None, 128, 128, 16) 1040        conv2d[0][0]                     
__________________________________________________________________________________________________
max_pooling2d (MaxPooling2D)    (None, 64, 64, 16)   0           conv2d_1[0][0]                   
__________________________________________________________________________________________________
conv2d_2 (Conv2D)               (None, 32, 32, 32)   2080        max_pooling2d[0][0]              
__________________________________________________________________________________________________
conv2d_3 (Conv2D)               (None, 16, 16, 32)   4128        conv2d_2[0][0]                   
__________________________________________________________________________________________________
max_pooling2d_1 (MaxPooling2D)  (None, 8, 8, 32)     0           conv2d_3[0][0]                   
__________________________________________________________________________________________________
flatten (Flatten)               (None, 2048)         0           max_pooling2d_1[0][0]            
__________________________________________________________________________________________________
dense (Dense)                   (None, 48)           98352       flatten[0][0]                    
__________________________________________________________________________________________________
dense_1 (Dense)                 (None, 32)           1568        dense[0][0]                      
__________________________________________________________________________________________________
dense_2 (Dense)                 (None, 4)            196         dense[0][0]                      
__________________________________________________________________________________________________
seg (Dense)                     (None, 16)           528         dense_1[0][0]                    
__________________________________________________________________________________________________
dig (Dense)                     (None, 1)            5           dense_2[0][0]                    
==================================================================================================
Total params: 108,361
Trainable params: 108,361
Non-trainable params: 0
__________________________________________________________________________________________________
None
Epoch 1/100
 1/46 [..............................] - ETA: 0s - loss: 3.3344 - s
…
